backend/archibotpro/functions/data.pth (torch, 5271 bytes, 6 tensors)

l1.weight f4 [8, 59]
0	0xbdb1c71e	-0.08680557
1	0xbeb68fb1	-0.35656503
2	0xbea72824	-0.32647812
3	0x3d4f4562	0.050603278
4	0x3ec01157	0.3751323
5	0xbe92580a	-0.28582793
6	0x3e11e1cb	0.1424629
7	0xbe6116f6	-0.21981415
8	0xbea72f4f	-0.3265328
9	0xbeca79ba	-0.39545995
10	0x3ebf8b87	0.37411138
11	0xbe428c9c	-0.1899895
12	0x3eea7561	0.45792678
13	0xbde684e4	-0.112558156
14	0xbdfd82be	-0.12378453
15	0xbe0bd370	-0.13654876
16	0x3ea7f4bb	0.32803902
17	0xbe92504a	-0.2857688
18	0x3efde813	0.4959112
19	0x3eb7bf8f	0.35888335
20	0xbda34c6d	-0.079735614
21	0x3f13c8ee	0.5772847
22	0x3ef41a20	0.47676182
23	0xbd8d49f6	-0.068988726
24	0xbd87537d	-0.06607721
25	0x3e9326eb	0.2874063
26	0xbd81b764	-0.06333807
27	0x3eedda6f	0.46455714
28	0xbea99e0b	-0.3312839
29	0x3edeeee0	0.43541622
30	0xbe712ed5	-0.23553021
31	0xbe6eee77	-0.23333155
32	0xbbb39830	-0.0054807886
33	0xbdad1c33	-0.08452644
34	0xbebdd0bb	-0.3707331
35	0xbde0f76e	-0.109846935
36	0xbe2a32e2	-0.16620973
37	0x3d868763	0.06568792
38	0x3e75815c	0.23975128
39	0xbe8883dd	-0.26663104
40	0xbcfbd5ad	-0.030741537
41	0xbe23c8a0	-0.15994501
42	0xbe84ca76	-0.25935715
43	0x3f1d8111	0.61525065
44	0x3da6d50c	0.08146104
45	0xbde6926c	-0.112583965
46	0xbeabb9f5	-0.3354031
47	0x3d73b762	0.05950106
48	0xbeb6361c	-0.35588157
49	0xbdf419af	-0.11918961
50	0x3ea2d160	0.31800365
51	0x3f0ae084	0.54248834
52	0xbe00c67a	-0.12575713
53	0x3efcb033	0.4935318
54	0x3f0c05bb	0.54696244
55	0xbe29b6e9	-0.16573681
56	0x3e53fa5a	0.2070097
57	0x3e28e928	0.16495192
58	0x3eaef779	0.34173182
59	0x3ed14689	0.40874127
60	0xbd9b4758	-0.07581967
61	0x3f0e48dd	0.5557993
62	0x3f06c205	0.526398
63	0x3e5d9baa	0.21641412
64	0xbed7e1dc	-0.42164505
65	0xbde60d0d	-0.11232958
66	0x3f05e425	0.52301246
67	0x3f06037b	0.5234906
68	0x3f013c04	0.504822
69	0x3f0859cd	0.53262025
70	0xbea6c6e2	-0.3257361
71	0x3eaaa018	0.33325267
72	0xbe738133	-0.23779754
73	0xbcf0b357	-0.02938239
74	0xbe51a068	-0.20471346
75	0x3eac66ec	0.33672273
76	0xbeeff2d4	-0.4686495
77	0x3ec70294	0.38869154
78	0x3f2dbea5	0.67869025
79	0x3ead2cf6	0.33823365
80	0x3f2bac91	0.6706019
81	0x3f299c49	0.662541
82	0x3ea56061	0.32300094
83	0x3e67fce2	0.22655061
84	0xbedde8d5	-0.433417
85	0x3df48b0a	0.11940582
86	0x3ee6c16f	0.45069453
87	0xbf1ed142	-0.6203805
88	0x3e99a971	0.30012086
89	0xbed10198	-0.40821528
90	0xbeb5c328	-0.35500455
91	0xbe950d6a	-0.29111797
92	0x3ec09ef3	0.3762127
93	0x3f104bfb	0.56365937
94	0xbe2763ad	-0.16346617
95	0xbda661e8	-0.08124143
96	0xbefa900a	-0.48938018
97	0x3ed7d411	0.4215398
98	0x3ef9bb8d	0.48775902
99	0x3f1fc047	0.62402767
100	0x3f11951b	0.5686814
101	0xbecbfb9a	-0.39840394
102	0x3f01c579	0.50691944
103	0xbe9984a6	-0.29984015
104	0xbe4bf9d7	-0.19919525
105	0x3e2f9e41	0.17150213
106	0xbe767045	-0.24066265
107	0x3f3c38b4	0.7352402
108	0x3edd3962	0.43207842
109	0x3ee1d138	0.44104934
110	0x3e8da131	0.27662042
111	0xbea7f43e	-0.3280353
112	0x3ee710f0	0.4513011
113	0xbf248791	-0.6426936
114	0x3eec9439	0.46206835
115	0x3e9bb0a9	0.30408219
116	0xbf061dc9	-0.523892
117	0xbec18734	-0.37798464
118	0xbe805106	-0.25061816
119	0x3f16a284	0.5884173
120	0x3f2d0af7	0.67594856
121	0x3e930850	0.2871728
122	0x3ee88446	0.45413417
123	0xbdd6a0da	-0.10479899
124	0x3f22e3c4	0.6362879
125	0x3f2e6e5b	0.6813714
126	0x3f2be797	0.67150253
127	0x3f268a35	0.6505464
128	0x3e8a8240	0.27052498
129	0xbe6434c3	-0.22285752
130	0x3eefcb0d	0.46834603
131	0xbe9d4e65	-0.30723873
132	0x3f256b1a	0.6461655
133	0xbebb9157	-0.36634323
134	0x3e7d8f25	0.24761637
135	0xbd3f483b	-0.046699744
136	0xbd3d2315	-0.046176035
137	0x3e7c211f	0.2462201
138	0xbe0dedb1	-0.13860203
139	0x3e936721	0.2878962
140	0x3e89512e	0.26819748
141	0x3df1011f	0.11767792
142	0xbd9cd4c1	-0.07657767
143	0x3eadf1d5	0.33973566
144	0x3ed9a239	0.4250658
145	0xbeb2fa04	-0.34956372
146	0x3f53122c	0.82449603
147	0xbe41eb61	-0.18937446
148	0x3f381c84	0.7191851
149	0xbda83f0d	-0.08215151
150	0xbe85f461	-0.2616301
151	0xbea0354a	-0.31290656
152	0x3f31f4b7	0.6951403
153	0x3f2077ec	0.62682986
154	0xbe3546c3	-0.17702775
155	0x3ebd55ef	0.36979625
156	0xbdae8125	-0.08520726
157	0x3f0bd043	0.5461466
158	0x3f11acc1	0.56904227
159	0x3f06dd89	0.52681786
160	0xbe2faffe	-0.1715698
161	0xbe834ce5	-0.25644603
162	0xbe67c77f	-0.22634695
163	0x3f38d16b	0.72194546
164	0x3d6170d2	0.055039234
165	0x3f3647ce	0.71203315
166	0xbf24f7c6	-0.6444057
167	0xbe6e842d	-0.23292609
168	0x3e00460c	0.12526721
169	0xbe684319	-0.22681846
170	0xbe470f18	-0.19439352
171	0xbdaf9555	-0.08573405
172	0x3ebae1f6	0.3650052
173	0x3f162599	0.5865112
174	0x3ecbe05c	0.3981961
175	0x3eda30a4	0.42615235
176	0x3eeb327b	0.4593695
177	0x3eacc82c	0.3374647
178	0x3cf8f7cd	0.030391598
179	0xbe507625	-0.20357569
180	0xbe322baf	-0.17399476
181	0xbe630a68	-0.22171938
182	0x3f228663	0.6348631
183	0xbe22e14f	-0.15906261
184	0xbefc4fe8	-0.49279714
185	0x3e0f5ae7	0.1399952
186	0xbedc2282	-0.42995077
187	0xbe997c11	-0.29977468
188	0x3f280f2d	0.65648156
189	0x3f04b755	0.5184224
190	0x3f36699d	0.71254903
191	0xbe1f70dd	-0.15570398
192	0x3f037c5f	0.5136165
193	0xbec235c9	-0.3793166
194	0x3f3af42a	0.73028815
195	0x3ead7822	0.33880717
196	0xbeedc5e6	-0.46440047
197	0x3ebf9f0a	0.37426025
198	0xbf133ec9	-0.5751768
199	0xbf17308c	-0.5905845
200	0x3eb76b6a	0.35824138
201	0x3ed41dbd	0.41428939
202	0xbe1d9ce8	-0.15391886
203	0xbec22f42	-0.3792668
204	0x3f0ef696	0.5584501
205	0xbe80153f	-0.2501621
206	0x3edfc430	0.43704367
207	0xbebd5371	-0.36977723
208	0x3ebb244a	0.36551124
209	0x3f3f8bff	0.7482299
210	0x3e9da4df	0.3078985
211	0xbe754bbb	-0.2395467
212	0xbe4bfa9c	-0.19919819
213	0x3f0ccd1b	0.55000466
214	0xbe659385	-0.22419555
215	0x3edee8d1	0.43537
216	0x3d1df29f	0.03856146
217	0x3d982de3	0.07430627
218	0x3dacbec9	0.08434827
219	0x3ed896e3	0.42302617
220	0x3f038396	0.5137266
221	0x3f2a841e	0.66607845
222	0xbe6ab4ba	-0.22920504
223	0x3f35de75	0.7104257
224	0xbe02bb35	-0.12766726
225	0x3f11c845	0.5694621
226	0x3e9d9c6a	0.30783397
227	0x3e07fb71	0.13279511
228	0x3ef5721c	0.4793862
229	0x3f116e38	0.56808805
230	0x3ed0f2a9	0.40810135
231	0xbe54d80b	-0.20785539
232	0xbce1e99e	-0.027577218
233	0x3e3944cd	0.18092652
234	0xbe1fdf58	-0.15612543
235	0xbe91cc53	-0.284762
236	0x3ed3614b	0.41285166
237	0x3de9503c	0.113922566
238	0xbec5f4a2	-0.38663203
239	0x3e98e089	0.29858807
240	0x3e54cc20	0.20780993
241	0xbed21708	-0.41033196
242	0x3cbd2312	0.023088012
243	0xbea31172	-0.31849247
244	0xbf1561d9	-0.5835243
245	0xbeaf1ecf	-0.34203193
246	0x3ecff839	0.40619066
247	0xbcb43d86	-0.022001993
248	0xbe533204	-0.20624548
249	0xbe168346	-0.14698514
250	0xbe8382c9	-0.2568572
251	0x3e876097	0.2644088
252	0x3ef17421	0.47158912
253	0xbe56931f	-0.2095456
254	0x3e9c7eeb	0.3056558
255	0x3f02502f	0.509036

l1.bias f4 [8]
0	0x3e924b83	0.28573236
1	0x3f21fcdf	0.63276476
2	0x3f1f40fe	0.62208545
3	0x3f38b24c	0.7214706
4	0x3f42b37b	0.76055115
5	0x3ecf116f	0.40442988
6	0x3ec40080	0.3828163
7	0x3f586c9c	0.84540725

l2.weight f4 [8, 8]
0	0xbf2f7a0a	-0.6854559
1	0x3f41a261	0.75638396
2	0x3f42a7e0	0.76037407
3	0xbf52c245	-0.8232768
4	0x3e430b2b	0.19047229
5	0x3ed9be40	0.42527962
6	0xbf850896	-1.0393245
7	0x3f868fdf	1.0512656
8	0xbf37b200	-0.7175598
9	0xbe0a130c	-0.13483828
10	0xbba897fd	-0.0051450715
11	0xbed1b8c3	-0.40961275
12	0x3fb779a9	1.4334003
13	0x3e4fe359	0.2030157
14	0x3f2019d5	0.62539417
15	0x3f99fcb2	1.2030241
16	0xbf558f59	-0.83421856
17	0x3f784c8d	0.9699181
18	0x3f3be8b8	0.73401976
19	0xbe574684	-0.21022993
20	0x3deb5908	0.11491591
21	0xbf33bea5	-0.70212775
22	0x3db81982	0.0898924
23	0x3fab8fcc	1.3403258
24	0xbe48bfb5	-0.1960438
25	0xbf8a45f5	-1.0802599
26	0x3f2eb8ea	0.68250906
27	0x3f25a7f0	0.6470938
28	0xbebeda35	-0.37275854
29	0x3f71068c	0.94150615
30	0x3ed12617	0.40849373
31	0x3f424a28	0.75894403
32	0x3f3690fe	0.7131499
33	0x3f55c467	0.8350281
34	0xbf2df874	-0.67957234
35	0x3f8d293c	1.1028209
36	0x3faa9c5d	1.3328968
37	0x3e4756d9	0.19466724
38	0xbf85873e	-1.0431898
39	0x3f0268f9	0.50941426
40	0x3fa64f5f	1.2992972
41	0x3f8d09a0	1.1018562
42	0x3fa67a8f	1.3006152
43	0xbea8fd4b	-0.33005747
44	0x3f5a4fbb	0.8527791
45	0x3fa0bf38	1.2558355
46	0x3e78a754	0.2428258
47	0xbf593a84	-0.8485491
48	0xbf5ca4ac	-0.8618877
49	0x3f5286af	0.8223676
50	0xbde6f1dd	-0.112766005
51	0x3fa3c6dd	1.2795063
52	0x3f03c199	0.5146728
53	0xbf9e3efc	-1.2362971
54	0x3f8b23f4	1.0870347
55	0xbee472df	-0.4461889
56	0xbf2ec63f	-0.6827125
57	0xbe9d43cc	-0.30715787
58	0x3f342fd2	0.7038547
59	0x3eee85af	0.46586367
60	0xbf15fa9d	-0.5858553
61	0xbe8b2859	-0.2717922
62	0xbd07d125	-0.03315844
63	0x3f6df380	0.92949677

l2.bias f4 [8]
0	0x3ee67183	0.45008478
1	0x3f24bf53	0.6435444
2	0x3f02cb12	0.5109111
3	0x3f00d1db	0.50320214
4	0x3e820f9d	0.25402537
5	0x3eac2706	0.33623523
6	0x3f152182	0.58254254
7	0x3eff2bdd	0.49838153

l3.weight f4 [8, 8]
0	0xbe94b718	-0.2904594
1	0xbf92e88e	-1.147722
2	0xbf85fbe3	-1.0467495
3	0x3efecff5	0.49768034
4	0x3ef70f2e	0.4825377
5	0xbf59ac76	-0.8502878
6	0x3f3e3e53	0.7431385
7	0x3eace66b	0.33769545
8	0x3f3d08a5	0.73841316
9	0x3db18301	0.08667565
10	0x3e75870b	0.23977296
11	0x3f2cfac4	0.6757014
12	0xbf814d3a	-1.0101693
13	0xbe72f866	-0.23727569
14	0xbf9c9a80	-1.223465
15	0x3ecd412f	0.40088794
16	0xbe3497e5	-0.17636068
17	0x3ec176ff	0.377861
18	0x3eee6127	0.46558496
19	0x3f0e832e	0.55668914
20	0xbe8aeb34	-0.2713257
21	0xbf955cbe	-1.1668928
22	0x3d747776	0.05968424
23	0x3f466c81	0.77509314
24	0x3f428173	0.75978774
25	0x3ed8252b	0.42215857
26	0x3edddca7	0.43332407
27	0xbf40a896	-0.7525724
28	0x3ec8181e	0.390809
29	0x3e413eff	0.18871687
30	0xbf8cdcf8	-1.1004934
31	0xbe1a5a34	-0.15073472
32	0xbf39e768	-0.7261872
33	0x3ef800bc	0.4843806
34	0xbf16b553	-0.5887043
35	0x3f083d33	0.5321838
36	0xbf8142c0	-1.0098495
37	0x3f25fc4d	0.64838105
38	0xbf2c6282	-0.6733781
39	0xbf151baf	-0.58245367
40	0xbec3451b	-0.3813866
41	0xbf5b50fa	-0.85670435
42	0xbf801ac7	-1.0008172
43	0xbf848d4c	-1.035562
44	0x3f48d2f9	0.7844692
45	0x3f0a6ce3	0.540724
46	0xbdecb3e6	-0.115577504
47	0xbf10e240	-0.5659523
48	0x3e21f19f	0.15814827
49	0xbf1c0f79	-0.6096111
50	0x3f41953c	0.7561834
51	0xbf8ba9a9	-1.0911151
52	0xbf8bb0a3	-1.091328
53	0x3f0179bd	0.5057638
54	0x3ea225b3	0.31669387
55	0x3e5c8066	0.21533355
56	0xbf43f3ea	-0.7654406
57	0x3edee50c	0.43534124
58	0x3e4088c7	0.18802176
59	0xbfbc20b5	-1.4697481
60	0x3ead72e0	0.33876705
61	0xbde8cec6	-0.11367564
62	0x3f1f2c40	0.62176895
63	0xbf57d18b	-0.8430411

l3.bias f4 [8]
0	0x3e919337	0.2843263
1	0xbed3439f	-0.41262528
2	0xbd1293fc	-0.03578566
3	0xbe14a8be	-0.14517495
4	0x3e752954	0.23941547
5	0xbe6240e7	-0.22095071
6	0xbdb84d84	-0.0899916
7	0xbe299174	-0.16559392
